assets/model/rsst_integrated_2k2_cnn_att2_2.onnx (onnx, 495252 bytes, 4 tensors)

query.bias f4 [64]
000000 0b 07 ac b8 4e 4e f1 b9 f8 e9 1e ba e1 f9 2d b9
       -8.202911e-05 -0.00046025444 -0.0006062086 -0.00016591653
000010 f5 53 15 bb 76 2a df b7 33 d3 86 b7 02 fa 17 37
       -0.0022785638 -2.6603444e-05 -1.6072392e-05 9.058511e-06
000020 78 97 4c 34 21 15 c2 b8 a0 4b 02 bb f7 0c 9e 36
       1.9054085e-07 -9.2545764e-05 -0.0019881502 4.7102762e-06
000030 2c 62 7f b6 68 ca 02 bb a4 b8 87 b8 56 be 66 ba
       -3.8055105e-06 -0.001995707 -6.4716936e-05 -0.0008802166
000040 3b 03 86 3a 0f db d6 ba 42 d0 f1 b9 b2 a1 0b b9
       0.0010224351 -0.0016392189 -0.00046122266 -0.00013316309
000050 7c d9 d6 b9 0a 64 da 3a 5d 59 80 3a 0c 0d 87 ba
       -0.000409793 0.0016661894 0.0009792257 -0.0010303571
000060 8a 0d e2 ba 03 57 05 ba 1c a1 b9 ba 24 0f 75 ba
       -0.0017246467 -0.0005086513 -0.0014162394 -0.00093482644
000070 39 84 3f 38 a7 04 f2 39 b9 1b 21 39 e7 fb 5d bc
       4.566109e-05 0.00046161303 0.00015364484 -0.013548828
000080 ea ce d6 3a 5d 74 59 b9 23 06 88 bc ea b3 bc 3b
       0.001638857 -0.00020738081 -0.016604489 0.005758752
000090 d8 91 ff b9 73 e4 a6 ba ab 5f a3 3b 81 c8 5a ba
       -0.00048746052 -0.0012732878 0.0049857697 -0.00083459174
0000a0 17 6d 56 ba f5 64 96 3a f6 fc 67 ba e6 57 f9 3a
       -0.0008179708 0.0011474179 -0.0008849645 0.0019023388
0000b0 88 44 44 3b 49 08 2c bc a0 9e 34 37 ce d0 c7 39
       0.0029948074 -0.010500022 1.0765769e-05 0.0003811181
0000c0 f8 70 61 b9 21 ab fa b8 fa 5d ce 39 ec a2 1e bc
       -0.00021499756 -0.00011952804 0.000393614 -0.009682398
0000d0 cf c6 ec b9 ba d3 f0 bb da c1 a4 b9 7e cf 91 3c
       -0.00045161552 -0.0073494585 -0.00031424948 0.017799135
0000e0 36 84 85 3c 53 16 4f 3b f3 37 ad 39 90 86 31 b9
       0.016298395 0.0031599 0.00033038817 -0.00016930164
0000f0 29 77 ce bc fc cb 31 38 41 f7 e2 b8 3d 2d b8 ba
       -0.025203304 4.2390064e-05 -0.000108225744 -0.0014051568

key.bias f4 [64]
000000 e2 a9 4a 2d 53 0a 85 ae 35 cb 3e 2d 8a 63 18 2d
       1.1520092e-11 -6.049974e-11 1.0845371e-11 8.662302e-12
000010 d2 cc 46 2f b9 68 2d 2b 94 3e c1 ac 6e 81 3e 2b
       1.8080762e-10 6.160728e-13 -5.4923375e-12 6.768118e-13
000020 58 b6 0d 28 e0 a4 d1 ac e7 fa b5 2f c6 61 5f ab
       7.866612e-15 -5.958442e-12 3.3101985e-10 -7.9361203e-13
000030 86 a8 56 aa d0 c4 a4 2e 3b 48 23 2d 9b ca c5 2e
       -1.9065486e-13 7.4928175e-11 9.281516e-12 8.994513e-11
000040 86 db 06 31 95 8f 98 30 8b 63 c6 b1 eb 3b 93 30
       1.962435e-09 1.1100264e-09 -5.773875e-09 1.0712687e-09
000050 c7 54 c1 30 f1 67 20 31 1f 70 7d b0 ad 11 61 b2
       1.4066693e-09 2.3342148e-09 -9.22002e-10 -1.3100743e-08
000060 97 d1 82 af 69 0a 6b 30 db c0 5e af ee 9c d8 b0
       -2.3795785e-10 8.5507296e-10 -2.0259298e-10 -1.576067e-09
000070 9b e4 e7 af 27 ef a8 2f 90 25 50 ae aa de 28 31
       -4.218109e-10 3.072895e-10 -4.7327087e-11 2.4573787e-09
000080 ed 4f 73 2f 43 4b 0c ac 72 46 04 32 33 6d 0a b0
       2.2129117e-10 -1.9936975e-12 7.699429e-09 -5.035929e-10
000090 80 96 d3 2e a3 8d b8 2f 0c fa f6 b0 6d 10 50 2f
       9.621903e-11 3.3570044e-10 -1.7969923e-09 1.8923325e-10
0000a0 62 ae cb ae 0e de 83 30 0b 4b 06 30 6f 7d 84 2f
       -9.262348e-11 9.594616e-10 4.885556e-10 2.4099786e-10
0000b0 bd 44 9b b0 82 85 b8 31 5c 04 df af ef 2e ec ae
       -1.1297271e-09 5.370283e-09 -4.056656e-10 -1.07403746e-10
0000c0 d7 5d 42 af d2 8c c9 2b e5 4b 1a b0 3d 24 5b b1
       -1.7677536e-10 1.4320994e-12 -5.6132726e-10 -3.1889293e-09
0000d0 62 ad 37 2f b4 33 cd b0 47 26 87 2e db f3 b7 31
       1.6705351e-10 -1.4930408e-09 6.145889e-11 5.353724e-09
0000e0 23 52 ce b1 a3 f9 9a b0 00 43 fa af 86 c7 f6 2d
       -6.004727e-09 -1.1275926e-09 -4.5522341e-10 2.8055568e-11
0000f0 52 bb e0 b1 86 80 15 af e3 51 db 2d 2f b0 fd af
       -6.540554e-09 -1.3597132e-10 2.4933782e-11 -4.6145618e-10

value.bias f4 [64]
000000 3a 5b 1f 37 b8 ff 19 39 98 f9 66 38 57 3a f4 3b
       9.498379e-06 0.0001468648 5.5068725e-05 0.0074532437
000010 6f 20 a2 ba db 5f 81 3a 3a f3 52 37 33 ee 25 bb
       -0.0012369285 0.0009870486 1.2573606e-05 -0.002531898
000020 d5 ae 0f b8 81 3c 48 b9 52 52 4e 3a 95 75 73 39
       -3.4256682e-05 -0.00019096026 0.0007870543 0.00023218089
000030 18 9f 95 ba e0 05 13 b9 bd 96 6f 3b 29 f3 3c 37
       -0.0011415211 -0.00014021201 0.0036558353 1.1262288e-05
000040 45 0b 2f 3b 79 00 55 3b 95 0a bc 39 3c ef a6 b8
       0.0026709598 0.0032501502 0.00035866039 -7.960058e-05
000050 6a 99 25 bc 6a d1 17 39 d0 63 e4 b7 bb db 92 3a
       -0.010107378 0.00014478495 -2.7226197e-05 0.0011204401
000060 ac 68 ab bb b0 85 58 b7 a6 69 14 bb 82 d5 16 bb
       -0.0052309837 -1.290573e-05 -0.002264598 -0.0023015444
000070 0f 07 74 3b dd 5f 2e b9 70 91 2c 37 38 69 26 39
       0.0037235653 -0.00016629645 1.0285861e-05 0.0001587019
000080 67 de 05 bd dd c9 86 39 1b d2 fd 39 4d af 84 ba
       -0.032682803 0.00025708872 0.0004841246 -0.0010123044
000090 a1 a3 e9 3a aa 48 60 ba 68 ad 76 ba c7 91 01 ba
       0.0017825254 -0.00085557497 -0.0009409995 -0.0004942682
0000a0 d0 cf 4a 37 35 e8 25 39 8f 35 b8 b7 3f 6f e1 3c
       1.2088523e-05 0.0001582213 -2.195945e-05 0.027518867
0000b0 44 63 c6 ba 8b 1b 95 b9 f3 0f b9 3a 2e 31 b6 3a
       -0.0015135785 -0.00028440016 0.0014119133 0.0013900155
0000c0 fd c1 0a 3c 7c 12 9f 3a 82 c9 0b b8 6d 98 ca 3b
       0.008469102 0.0012136246 -3.332785e-05 0.0061827214
0000d0 ad 6e ad bc 55 8e 42 3a 26 ad cb bb 9f fd bd bc
       -0.021170938 0.0007421722 -0.0062157093 -0.023192225
0000e0 d2 24 6f bb 16 98 cb bb 67 7a 41 3a 10 78 2f bb
       -0.0036490452 -0.0062131984 0.0007380605 -0.0026774444
0000f0 69 0e 17 bb 65 a8 91 b8 05 fe 2a ba 87 0e 3d 39
       -0.002304936 -6.945505e-05 -0.0006522837 0.00018029856

out_proj.bias f4 [64]
000000 64 c4 9b 3a a7 4a 60 3c 34 09 23 3c 8e fb 59 3b
       0.001188409 0.0136896735 0.009950925 0.003326151
000010 59 66 c4 3b eb 88 c4 bc a6 fa 96 39 af 3c d2 3b
       0.005993646 -0.023991069 0.00028796977 0.0064159255
000020 1b 50 1c 3c 6b 20 49 bc 25 ce ee bb ec 9c c7 bb
       0.009540583 -0.012275795 -0.007287758 -0.0060917046
000030 e2 75 5b bc 1c 43 a5 bc a1 e0 3f bb 8c 56 bb 3a
       -0.013394805 -0.020173602 -0.0029278176 0.0014292761
000040 35 fa 1d bb 65 4a 89 bc bf 8b ec bb 4c c3 80 3b
       -0.0024105434 -0.016759107 -0.0072188075 0.003929531
000050 47 01 81 3c 00 6a 30 3a 68 be 7b bb 41 15 16 3b
       0.01574768 0.00067296624 -0.0038413052 0.0022900852
000060 8a f3 79 bc b0 97 03 3a 44 b4 26 3a 81 f6 1a 3c
       -0.015255818 0.00050198566 0.0006359259 0.009458185
000070 fd 8e c2 3c a1 c0 5a bb 30 ed 05 3b c8 dd d8 bb
       0.023749823 -0.0033378976 0.0020435564 -0.0066182353
000080 a2 0a 2e 3b c1 7a 6c 3a cb ee 79 bc 4a f3 d9 3b
       0.002655663 0.00090209773 -0.015254687 0.006651317
000090 f1 bb f0 3a 3a 3b 0a bb da 1d 99 3b c1 7a 7c bb
       0.0018366558 -0.002109243 0.004672748 -0.0038525315
0000a0 00 53 bf bb da d2 86 bc a5 ff 7d 38 13 f2 00 3b
       -0.005838752 -0.016457964 6.0557988e-05 0.0019675537
0000b0 34 21 7e bc 80 01 8a bc f9 cb 80 bc 22 9e 90 bc
       -0.015510846 -0.016846418 -0.015722262 -0.017653529
0000c0 5f 5e 3a 3c c2 e9 94 bb 49 b6 72 bc bf fb f6 bb
       0.011375039 -0.0045444677 -0.014813968 -0.0075373347
0000d0 e6 30 ce bc 8e f0 d1 3a 56 b8 8e ba 0f ae f2 3b
       -0.025169801 0.0016017125 -0.0010888677 0.0074060033
0000e0 d9 18 10 bc e9 ad 8c 3c 39 7d 3d bb f7 b5 7a bc
       -0.008794987 0.01717277 -0.002891375 -0.015302173
0000f0 a5 41 88 3c 34 bd 50 3b 2d c3 10 ba 21 2f a6 39
       0.016632864 0.0031851055 -0.00055222475 0.000316971
