assets/ml/rsst_integrated_bi_1k2_wd_4.onnx (onnx, 974521 bytes, 2 tensors)

fc1.bias f4 [32]
0	0xbd803e34	-0.06261864
1	0x3db98246	0.09058051
2	0x3dfba572	0.122874156
3	0x3cf4e067	0.02989216
4	0xb83ec55a	-4.5483328e-05
5	0xbdf130b8	-0.117768705
6	0x3c6dfd31	0.014525698
7	0x3cc149d3	0.023594772
8	0xbd1f2d38	-0.038861483
9	0x3daece79	0.08535475
10	0x3d3bee6f	0.045881685
11	0xbc320a97	-0.010866783
12	0xbcb68f65	-0.022285173
13	0x3d16d9a6	0.03682866
14	0x3dbe8955	0.09303538
15	0xbc19bb33	-0.009383011
16	0xbda0941b	-0.07840749
17	0x3cf142d8	0.029450819
18	0x3cc561c1	0.024094464
19	0x3d898c7f	0.06716251
20	0x3d4d576d	0.050132204
21	0xbce068a5	-0.027393648
22	0xbcc29d21	-0.023756566
23	0xbda83b38	-0.0821442
24	0x3d508f07	0.05091765
25	0x3d771041	0.060318235
26	0x3ddebd02	0.10875894
27	0xbdc2b7c3	-0.09507706
28	0x3d851eaa	0.06499989
29	0x3cff246c	0.031145297
30	0xbda7791d	-0.081773974
31	0x3e015dd1	0.12633444

fc2.weight f4 [1, 32]
0	0xbe687e4e	-0.22704431
1	0x3e0cdc6d	0.13755961
2	0x3e05d96d	0.13071223
3	0xbe103967	-0.14084397
4	0xbbef925a	-0.0073111476
5	0xbe703ece	-0.23461458
6	0xbe715bd4	-0.23570186
7	0xbe15b04f	-0.14618038
8	0xbe6ac387	-0.2292615
9	0x3e13357a	0.14375868
10	0x3dfb95be	0.122844204
11	0x3dcf2908	0.10115248
12	0xbe2368ca	-0.15957943
13	0x3e14562b	0.14485995
14	0xbe669044	-0.2251597
15	0x3e0a63ae	0.13514587
16	0xbe37b09f	-0.1793847
17	0xbe344287	-0.17603503
18	0x3e1280b4	0.14306909
19	0x3ded4011	0.11584485
20	0x3e1a7d84	0.15086943
21	0xbe266850	-0.1625073
22	0xbe4b7da0	-0.19872141
23	0xbe4fbd40	-0.20287037
24	0x3e1f1a78	0.15537441
25	0x3e13738f	0.14399551
26	0x3e123d91	0.14281298
27	0xbe5d1d7c	-0.21593279
28	0xbe423848	-0.18966782
29	0x3e32f227	0.17475186
30	0xbe6b14ad	-0.22957106
31	0x3dd346ff	0.10316276
